…
p_size=224, clip_grad_norm=None, ra_sampler=False, ra_reps=3, weights=None, backend='pil', use_v2=False, is_huggingface=False, checkpoint_interval=10, no_imagenet_mean_std=False, stochastic_depth=0.0, rank=0, gpu=0, distributed=True, dist_backend='nccl')
Loading data
Loading training data
Took 4.259000778198242
Loading validation data
Creating data loaders
Creating model
Loading pruned model from results/pruned/ConvNext/Small/final_pruned_convnext_small_imagenet_rev4_ratio0.282_full.pt
macs: 4.60 G, params: 28.21 M
DistributedDataParallel(
  (module): ConvNeXt(
    (stem): Sequential(
      (0): Conv2d(3, 48, kernel_size=(4, 4), stride=(4, 4))
      (1): LayerNorm2d((48,), eps=1e-06, elementwise_affine=True)
    )
    (stages): Sequential(
      (0): ConvNeXtStage(
        (downsample): Identity()
        (blocks): Sequential(
          (0): ConvNeXtBlock(
            (conv_dw): Conv2d(48, 48, kernel_size=(7, 7), stride=(1, 1), padding=(3, 3), groups=48)
            (norm): LayerNorm((48,), eps=1e-06, elementwise_affine=True)
            (mlp): Mlp(
              (fc1): Linear(in_features=48, out_features=272, bias=True)
              (act): GELU()
              (drop1): Dropout(p=0.0, inplace=False)
              (norm): Identity()
              (fc2): Linear(in_features=272, out_features=48, bias=True)
              (drop2): Dropout(p=0.0, inplace=False)
            )
            (shortcut): Identity()
            (drop_path): Identity()
          )
          (1): ConvNeXtBlock(
            (conv_dw): Conv2d(48, 48, kernel_size=(7, 7), stride=(1, 1), padding=(3, 3), groups=48)
            (norm): LayerNorm((48,), eps=1e-06, elementwise_affine=True)
            (mlp): Mlp(
              (fc1): Linear(in_features=48, out_features=256, bias=True)
              (act): GELU()
              (drop1): Dropout(p=0.0, inplace=False)
              (norm): Identity()
              (fc2): Linear(in_features=256, out_features=48, bias=True)
              (drop2): Dropout(p=0.0, inplace=False)
            )
            (shortcut): Identity()
            (drop_path): Identity()
          )
          (2): ConvNeXtBlock(
            (conv_dw): Conv2d(48, 48, kernel_size=(7, 7), stride=(1, 1), padding=(3, 3), groups=48)
            (norm): LayerNorm((48,), eps=1e-06, elementwise_affine=True)
            (mlp): Mlp(
              (fc1): Linear(in_features=48, out_features=320, bias=True)
              (act): GELU()
              (drop1): Dropout(p=0.0, inplace=False)
              (norm): Identity()
              (fc2): Linear(in_features=320, out_features=48, bias=True)
              (drop2): Dropout(p=0.0, inplace=False)
            )
            (shortcut): Identity()
            (drop_path): Identity()
          )
        )
      )
      (1): ConvNeXtStage(
        (downsample): Sequential(
          (0): LayerNorm2d((48,), eps=1e-06, elementwise_affine=True)
          (1): Conv2d(48, 80, kernel_size=(2, 2), stride=(2, 2))
        )
        (blocks): Sequential(
          (0): ConvNeXtBlock(
            (conv_dw): Conv2d(80, 80, kernel_size=(7, 7), stride=(1, 1), padding=(3, 3), groups=80)
            (norm): LayerNorm((80,), eps=1e-06, elementwise_affine=True)
            (mlp): Mlp(
              (fc1): Linear(in_features=80, out_features=672, bias=True)
              (act): GELU()
              (drop1): Dropout(p=0.0, inplace=False)
              (norm): Identity()
              (fc2): Linear(in_features=672, out_features=80, bias=True)
              (drop2): Dropout(p=0.0, inplace=False)
            )
            (shortcut): Identity()
            (drop_path): Identity()
          )
          (1): ConvNeXtBlock(
            (conv_dw): Conv2d(80, 80, kernel_size=(7, 7), stride=(1, 1), padding=(3, 3), groups=80)
            (norm): LayerNorm((80,), eps=1e-06, elementwise_affine=True)
            (mlp): Mlp(
              (fc1): Linear(in_features=80, out_features=656, bias=True)
              (act): GELU()
              (drop1): Dropout(p=0.0, inplace=False)
              (norm): Identity()
              (fc2): Linear(in_features=656, out_features=80, bias=True)
              (drop2): Dropout(p=0.0, inplace=False)
            )
            (shortcut): Identity()
            (drop_path): Identity()
          )
          (2): ConvNeXtBlock(
            (conv_dw): Conv2d(80, 80, kernel_size=(7, 7), stride=(1, 1), padding=(3, 3), groups=80)
            (norm): LayerNorm((80,), eps=1e-06, elementwise_affine=True)
            (mlp): Mlp(
              (fc1): Linear(in_features=80, out_features=656, bias=True)
              (act): GELU()
              (drop1): Dropout(p=0.0, inplace=False)
              (norm): Identity()
              (fc2): Linear(in_features=656, out_features=80, bias=True)
              (drop2): Dropout(p=0.0, inplace=False)
            )
            (shortcut): Identity()
            (drop_path): Identity()
          )
        )
      )
      (2): ConvNeXtStage(
        (downsample): Sequential(
          (0): LayerNorm2d((80,), eps=1e-06, elementwise_affine=True)
          (1): Conv2d(80, 256, kernel_size=(2, 2), stride=(2, 2))
        )
        (blocks): Sequential(
          (0): ConvNeXtBlock(
            (conv_dw): Conv2d(256, 256, kernel_size=(7, 7), stride=(1, 1), padding=(3, 3), groups=256)
            (norm): LayerNorm((256,), eps=1e-06, elementwise_affine=True)
            (mlp): Mlp(
              (fc1): Linear(in_features=256, out_features=1216, bias=True)
              (act): GELU()
              (drop1): Dropout(p=0.0, inplace=False)
              (norm): Identity()
              (fc2): Linear(in_features=1216, out_features=256, bias=True)
              (drop2): Dropout(p=0.0, inplace=False)
            )
            (shortcut): Identity()
            (drop_path): Identity()
          )
          (1): ConvNeXtBlock(
            (conv_dw): Conv2d(256, 256, kernel_size=(7, 7), stride=(1, 1), padding=(3, 3), groups=256)
            (norm): LayerNorm((256,), eps=1e-06, elementwise_affine=True)
            (mlp): Mlp(
              (fc1): Linear(in_features=256, out_features=1216, bias=True)
              (act): GELU()
              (drop1): Dropout(p=0.0, inplace=False)
              (norm): Identity()
              (fc2): Linear(in_features=1216, out_features=256, bias=True)
              (drop2): Dropout(p=0.0, inplace=False)
            )
            (shortcut): Identity()
            (drop_path): Identity()
          )
          (2): ConvNeXtBlock(
            (conv_dw): Conv2d(256, 256, kernel_size=(7, 7), stride=(1, 1), padding=(3, 3), groups=256)
            (norm): LayerNorm((256,), eps=1e-06, elementwise_affine=True)
            (mlp): Mlp(
              (fc1): Linear(in_features=256, out_features=1344, bias=True)
              (act): GELU()
              (drop1): Dropout(p=0.0, inplace=False)
              (norm): Identity()
              (fc2): Linear(in_features=1344, out_features=256, bias=True)
              (drop2): Dropout(p=0.0, inplace=False)
            )
            (shortcut): Identity()
            (drop_path): Identity()
          )
          (3): ConvNeXtBlock(
            (conv_dw): Conv2d(256, 256, kernel_size=(7, 7), stride=(1, 1), padding=(3, 3), groups=256)
            (norm): LayerNorm((256,), eps=1e-06, elementwise_affine=True)
            (mlp): Mlp(
              (fc1): Linear(in_features=256, out_features=1280, bias=True)
              (act): GELU()
              (drop1): Dropout(p=0.0, inplace=False)
              (norm): Identity()
              (fc2): Linear(in_features=1280, out_features=256, bias=True)
              (drop2): Dropout(p=0.0, inplace=False)
            )
            (shortcut): Identity()
            (drop_path): Identity()
          )
          (4): ConvNeXtBlock(
            (conv_dw): Conv2d(256, 256, kernel_size=(7, 7), stride=(1, 1), padding=(3, 3), groups=256)
            (norm): LayerNorm((256,), eps=1e-06, elementwise_affine=True)
            (mlp): Mlp(
              (fc1): Linear(in_features=256, out_features=1200, bias=True)
              (act): GELU()
              (drop1): Dropout(p=0.0, inplace=False)
              (norm): Identity()
              (fc2): Linear(in_features=1200, out_features=256, bias=True)
              (drop2): Dropout(p=0.0, inplace=False)
            )
            (shortcut): Identity()
            (drop_path): Identity()
          )
          (5): ConvNeXtBlock(
            (conv_dw): Conv2d(256, 256, kernel_size=(7, 7), stride=(1, 1), padding=(3, 3), groups=256)
            (norm): LayerNorm((256,), eps=1e-06, elementwise_affine=True)
            (mlp): Mlp(
              (fc1): Linear(in_features=256, out_features=1280, bias=True)
              (act): GELU()
              (drop1): Dropout(p=0.0, inplace=False)
              (norm): Identity()
              (fc2): Linear(in_features=1280, out_features=256, bias=True)
              (drop2): Dropout(p=0.0, inplace=False)
            )
            (shortcut): Identity()
            (drop_path): Identity()
          )
          (6): ConvNeXtBlock(
            (conv_dw): Conv2d(256, 256, kernel_size=(7, 7), stride=(1, 1), padding=(3, 3), groups=256)
            (norm): LayerNorm((256,), eps=1e-06, elementwise_affine=True)
            (mlp): Mlp(
              (fc1): Linear(in_features=256, out_features=1312, bias=True)
              (act): GELU()
              (drop1): Dropout(p=0.0, inplace=False)
              (norm): Identity()
              (fc2): Linear(in_features=1312, out_features=256, bias=True)
              (drop2): Dropout(p=0.0, inplace=False)
            )
            (shortcut): Identity()
            (drop_path): Identity()
          )
          (7): ConvNeXtBlock(
            (conv_dw): Conv2d(256, 256, kernel_size=(7, 7), stride=(1, 1), padding=(3, 3), groups=256)
            (norm): LayerNorm((256,), eps=1e-06, elementwise_affine=True)
            (mlp): Mlp(
              (fc1): Linear(in_features=256, out_features=1280, bias=True)
              (act): GELU()
              (drop1): Dropout(p=0.0, inplace=False)
              (norm): Identity()
              (fc2): Linear(in_features=1280, out_features=256, bias=True)
              (drop2): Dropout(p=0.0, inplace=False)
            )
            (shortcut): Identity()
            (drop_path): Identity()
          )
          (8): ConvNeXtBlock(
            (conv_dw): Conv2d(256, 256, kernel_size=(7, 7), stride=(1, 1), padding=(3, 3), groups=256)
            (norm): LayerNorm((256,), eps=1e-06, elementwise_affine=True)
            (mlp): Mlp(
              (fc1): Linear(in_features=256, out_features=1200, bias=True)
              (act): GELU()
              (drop1): Dropout(p=0.0, inplace=False)
              (norm): Identity()
              (fc2): Linear(in_features=1200, out_features=256, bias=True)
              (drop2): Dropout(p=0.0, inplace=False)
            )
            (shortcut): Identity()
            (drop_path): Identity()
          )
          (9): ConvNeXtBlock(
            (conv_dw): Conv2d(256, 256, kernel_size=(7, 7), stride=(1, 1), padding=(3, 3), groups=256)
            (norm): LayerNorm((256,), eps=1e-06, elementwise_affine=True)
            (mlp): Mlp(
              (fc1): Linear(in_features=256, out_features=1328, bias=True)
              (act): GELU()
              (drop1): Dropout(p=0.0, inplace=False)
              (norm): Identity()
              (fc2): Linear(in_features=1328, out_features=256, bias=True)
              (drop2): Dropout(p=0.0, inplace=False)
            )
            (shortcut): Identity()
            (drop_path): Identity()
          )
          (10): ConvNeXtBlock(
            (conv_dw): Conv2d(256, 256, kernel_size=(7, 7), stride=(1, 1), padding=(3, 3), groups=256)
            (norm): LayerNorm((256,), eps=1e-06, elementwise_affine=True)
            (mlp): Mlp(
              (fc1): Linear(in_features=256, out_features=1184, bias=True)
              (act): GELU()
              (drop1): Dropout(p=0.0, inplace=False)
              (norm): Identity()
              (fc2): Linear(in_features=1184, out_features=256, bias=True)
              (drop2): Dropout(p=0.0, inplace=False)
            )
            (shortcut): Identity()
            (drop_path): Identity()
          )
          (11): ConvNeXtBlock(
            (conv_dw): Conv2d(256, 256, kernel_size=(7, 7), stride=(1, 1), padding=(3, 3), groups=256)
            (norm): LayerNorm((256,), eps=1e-06, elementwise_affine=True)
            (mlp): Mlp(
              (fc1): Linear(in_features=256, out_features=1248, bias=True)
              (act): GELU()
              (drop1): Dropout(p=0.0, inplace=False)
              (norm): Identity()
              (fc2): Linear(in_features=1248, out_features=256, bias=True)
              (drop2): Dropout(p=0.0, inplace=False)
            )
            (shortcut): Identity()
            (drop_path): Identity()
          )
          (12): ConvNeXtBlock(
            (conv_dw): Conv2d(256, 256, kernel_size=(7, 7), stride=(1, 1), padding=(3, 3), groups=256)
            (norm): LayerNorm((256,), eps=1e-06, elementwise_affine=True)
            (mlp): Mlp(
              (fc1): Linear(in_features=256, out_features=1280, bias=True)
              (act): GELU()
              (drop1): Dropout(p=0.0, inplace=False)
              (norm): Identity()
              (fc2): Linear(in_features=1280, out_features=256, bias=True)
              (drop2): Dropout(p=0.0, inplace=False)
            )
            (shortcut): Identity()
            (drop_path): Identity()
          )
          (13): ConvNeXtBlock(
            (conv_dw): Conv2d(256, 256, kernel_size=(7, 7), stride=(1, 1), padding=(3, 3), groups=256)
            (norm): LayerNorm((256,), eps=1e-06, elementwise_affine=True)
            (mlp): Mlp(
              (fc1): Linear(in_features=256, out_features=1376, bias=True)
              (act): GELU()
              (drop1): Dropout(p=0.0, inplace=False)
              (norm): Identity()
              (fc2): Linear(in_features=1376, out_features=256, bias=True)
              (drop2): Dropout(p=0.0, inplace=False)
            )
            (shortcut): Identity()
            (drop_path): Identity()
          )
          (14): ConvNeXtBlock(
            (conv_dw): Conv2d(256, 256, kernel_size=(7, 7), stride=(1, 1), padding=(3, 3), groups=256)
            (norm): LayerNorm((256,), eps=1e-06, elementwise_affine=True)
            (mlp): Mlp(
              (fc1): Linear(in_features=256, out_features=1520, bias=True)
              (act): GELU()
              (drop1): Dropout(p=0.0, inplace=False)
              (norm): Identity()
              (fc2): Linear(in_features=1520, out_features=256, bias=True)
              (drop2): Dropout(p=0.0, inplace=False)
            )
            (shortcut): Identity()
            (drop_path): Identity()
          )
          (15): ConvNeXtBlock(
            (conv_dw): Conv2d(256, 256, kernel_size=(7, 7), stride=(1, 1), padding=(3, 3), groups=256)
            (norm): LayerNorm((256,), eps=1e-06, elementwise_affine=True)
            (mlp): Mlp(
              (fc1): Linear(in_features=256, out_features=1424, bias=True)
              (act): GELU()
              (drop1): Dropout(p=0.0, inplace=False)
              (norm): Identity()
              (fc2): Linear(in_features=1424, out_features=256, bias=True)
              (drop2): Dropout(p=0.0, inplace=False)
            )
            (shortcut): Identity()
            (drop_path): Identity()
          )
          (16): ConvNeXtBlock(
            (conv_dw): Conv2d(256, 256, kernel_size=(7, 7), stride=(1, 1), padding=(3, 3), groups=256)
            (norm): LayerNorm((256,), eps=1e-06, elementwise_affine=True)
            (mlp): Mlp(
              (fc1): Linear(in_features=256, out_features=1344, bias=True)
              (act): GELU()
              (drop1): Dropout(p=0.0, inplace=False)
              (norm): Identity()
              (fc2): Linear(in_features=1344, out_features=256, bias=True)
              (drop2): Dropout(p=0.0, inplace=False)
            )
            (shortcut): Identity()
            (drop_path): Identity()
          )
          (17): ConvNeXtBlock(
            (conv_dw): Conv2d(256, 256, kernel_size=(7, 7), stride=(1, 1), padding=(3, 3), groups=256)
            (norm): LayerNorm((256,), eps=1e-06, elementwise_affine=True)
            (mlp): Mlp(
              (fc1): Linear(in_features=256, out_features=1232, bias=True)
              (act): GELU()
              (drop1): Dropout(p=0.0, inplace=False)
              (norm): Identity()
              (fc2): Linear(in_features=1232, out_features=256, bias=True)
              (drop2): Dropout(p=0.0, inplace=False)
            )
            (shortcut): Identity()
            (drop_path): Identity()
          )
          (18): ConvNeXtBlock(
            (conv_dw): Conv2d(256, 256, kernel_size=(7, 7), stride=(1, 1), padding=(3, 3), groups=256)
            (norm): LayerNorm((256,), eps=1e-06, elementwise_affine=True)
            (mlp): Mlp(
              (fc1): Linear(in_features=256, out_features=1424, bias=True)
              (act): GELU()
              (drop1): Dropout(p=0.0, inplace=False)
              (norm): Identity()
              (fc2): Linear(in_features=1424, out_features=256, bias=True)
              (drop2): Dropout(p=0.0, inplace=False)
            )
            (shortcut): Identity()
            (drop_path): Identity()
          )
          (19): ConvNeXtBlock(
            (conv_dw): Conv2d(256, 256, kernel_size=(7, 7), stride=(1, 1), padding=(3, 3), groups=256)
            (norm): LayerNorm((256,), eps=1e-06, elementwise_affine=True)
            (mlp): Mlp(
              (fc1): Linear(in_features=256, out_features=1376, bias=True)
              (act): GELU()
              (drop1): Dropout(p=0.0, inplace=False)
              (norm): Identity()
              (fc2): Linear(in_features=1376, out_features=256, bias=True)
              (drop2): Dropout(p=0.0, inplace=False)
            )
            (shortcut): Identity()
            (drop_path): Identity()
          )
          (20): ConvNeXtBlock(
            (conv_dw): Conv2d(256, 256, kernel_size=(7, 7), stride=(1, 1), padding=(3, 3), groups=256)
            (norm): LayerNorm((256,), eps=1e-06, elementwise_affine=True)
            (mlp): Mlp(
              (fc1): Linear(in_features=256, out_features=1296, bias=True)
              (act): GELU()
              (drop1): Dropout(p=0.0, inplace=False)
              (norm): Identity()
              (fc2): Linear(in_features=1296, out_features=256, bias=True)
              (drop2): Dropout(p=0.0, inplace=False)
            )
            (shortcut): Identity()
            (drop_path): Identity()
          )
          (21): ConvNeXtBlock(
            (conv_dw): Conv2d(256, 256, kernel_size=(7, 7), stride=(1, 1), padding=(3, 3), groups=256)
            (norm): LayerNorm((256,), eps=1e-06, elementwise_affine=True)
            (mlp): Mlp(
              (fc1): Linear(in_features=256, out_features=1280, bias=True)
              (act): GELU()
              (drop1): Dropout(p=0.0, inplace=False)
              (norm): Identity()
              (fc2): Linear(in_features=1280, out_features=256, bias=True)
              (drop2): Dropout(p=0.0, inplace=False)
            )
            (shortcut): Identity()
            (drop_path): Identity()
          )
          (22): ConvNeXtBlock(
            (conv_dw): Conv2d(256, 256, kernel_size=(7, 7), stride=(1, 1), padding=(3, 3), groups=256)
            (norm): LayerNorm((256,), eps=1e-06, elementwise_affine=True)
            (mlp): Mlp(
              (fc1): Linear(in_features=256, out_features=1328, bias=True)
              (act): GELU()
              (drop1): Dropout(p=0.0, inplace=False)
              (norm): Identity()
              (fc2): Linear(in_features=1328, out_features=256, bias=True)
              (drop2): Dropout(p=0.0, inplace=False)
            )
            (shortcut): Identity()
            (drop_path): Identity()
          )
          (23): ConvNeXtBlock(
            (conv_dw): Conv2d(256, 256, kernel_size=(7, 7), stride=(1, 1), padding=(3, 3), groups=256)
            (norm): LayerNorm((256,), eps=1e-06, elementwise_affine=True)
            (mlp): Mlp(
              (fc1): Linear(in_features=256, out_features=1328, bias=True)
              (act): GELU()
              (drop1): Dropout(p=0.0, inplace=False)
              (norm): Identity()
              (fc2): Linear(in_features=1328, out_features=256, bias=True)
              (drop2): Dropout(p=0.0, inplace=False)
            )
            (shortcut): Identity()
            (drop_path): Identity()
          )
          (24): ConvNeXtBlock(
            (conv_dw): Conv2d(256, 256, kernel_size=(7, 7), stride=(1, 1), padding=(3, 3), groups=256)
            (norm): LayerNorm((256,), eps=1e-06, elementwise_affine=True)
            (mlp): Mlp(
              (fc1): Linear(in_features=256, out_features=1232, bias=True)
              (act): GELU()
              (drop1): Dropout(p=0.0, inplace=False)
              (norm): Identity()
              (fc2): Linear(in_features=1232, out_features=256, bias=True)
              (drop2): Dropout(p=0.0, inplace=False)
            )
            (shortcut): Identity()
            (drop_path): Identity()
          )
          (25): ConvNeXtBlock(
            (conv_dw): Conv2d(256, 256, kernel_size=(7, 7), stride=(1, 1), padding=(3, 3), groups=256)
            (norm): LayerNorm((256,), eps=1e-06, elementwise_affine=True)
            (mlp): Mlp(
              (fc1): Linear(in_features=256, out_features=1264, bias=True)
              (act): GELU()
              (drop1): Dropout(p=0.0, inplace=False)
              (norm): Identity()
              (fc2): Linear(in_features=1264, out_features=256, bias=True)
              (drop2): Dropout(p=0.0, inplace=False)
            )
            (shortcut): Identity()
            (drop_path): Identity()
          )
          (26): ConvNeXtBlock(
            (conv_dw): Conv2d(256, 256, kernel_size=(7, 7), stride=(1, 1), padding=(3, 3), groups=256)
            (norm): LayerNorm((256,), eps=1e-06, elementwise_affine=True)
            (mlp): Mlp(
              (fc1): Linear(in_features=256, out_features=1376, bias=True)
              (act): GELU()
              (drop1): Dropout(p=0.0, inplace=False)
              (norm): Identity()
              (fc2): Linear(in_features=1376, out_features=256, bias=True)
              (drop2): Dropout(p=0.0, inplace=False)
            )
            (shortcut): Identity()
            (drop_path): Identity()
          )
        )
      )
      (3): ConvNeXtStage(
        (downsample): Sequential(
          (0): LayerNorm2d((256,), eps=1e-06, elementwise_affine=True)
          (1): Conv2d(256, 496, kernel_size=(2, 2), stride=(2, 2))
        )
        (blocks): Sequential(
          (0): ConvNeXtBlock(
            (conv_dw): Conv2d(496, 496, kernel_size=(7, 7), stride=(1, 1), padding=(3, 3), groups=496)
            (norm): LayerNorm((496,), eps=1e-06, elementwise_affine=True)
            (mlp): Mlp(
              (fc1): Linear(in_features=496, out_features=2832, bias=True)
              (act): GELU()
              (drop1): Dropout(p=0.0, inplace=False)
              (norm): Identity()
              (fc2): Linear(in_features=2832, out_features=496, bias=True)
              (drop2): Dropout(p=0.0, inplace=False)
            )
            (shortcut): Identity()
            (drop_path): Identity()
          )
          (1): ConvNeXtBlock(
            (conv_dw): Conv2d(496, 496, kernel_size=(7, 7), stride=(1, 1), padding=(3, 3), groups=496)
            (norm): LayerNorm((496,), eps=1e-06, elementwise_affine=True)
            (mlp): Mlp(
              (fc1): Linear(in_features=496, out_features=2928, bias=True)
              (act): GELU()
              (drop1): Dropout(p=0.0, inplace=False)
              (norm): Identity()
              (fc2): Linear(in_features=2928, out_features=496, bias=True)
              (drop2): Dropout(p=0.0, inplace=False)
            )
            (shortcut): Identity()
            (drop_path): Identity()
          )
          (2): ConvNeXtBlock(
            (conv_dw): Conv2d(496, 496, kernel_size=(7, 7), stride=(1, 1), padding=(3, 3), groups=496)
            (norm): LayerNorm((496,), eps=1e-06, elementwise_affine=True)
            (mlp): Mlp(
              (fc1): Linear(in_features=496, out_features=2480, bias=True)
              (act): GELU()
              (drop1): Dropout(p=0.0, inplace=False)
              (norm): Identity()
              (fc2): Linear(in_features=2480, out_features=496, bias=True)
              (drop2): Dropout(p=0.0, inplace=False)
            )
            (shortcut): Identity()
            (drop_path): Identity()
          )
        )
      )
    )
    (norm_pre): Identity()
    (head): NormMlpClassifierHead(
      (global_pool): SelectAdaptivePool2d(pool_type=avg, flatten=Identity())
      (norm): LayerNorm2d((496,), eps=1e-06, elementwise_affine=True)
      (flatten): Flatten(start_dim=1, end_dim=-1)
      (pre_logits): Identity()
      (drop): Dropout(p=0.0, inplace=False)
      (fc): Linear(in_features=496, out_features=1000, bias=True)
    )
  )
)
Start training
Epoch: [0]  [   0/5005]  eta: 1 day, 12:36:56  lr: 0.04  img/s: 33.41716785019583  loss_kd: 7.5539703369140625  loss_ce: 7.5539703369140625  loss: 7.5540 (7.5540)  acc1: 0.0000 (0.0000)  acc5: 0.7812 (0.7812)  time: 26.3369  data: 18.6755  max mem: 17788
Epoch: [0]  [  50/5005]  eta: 2:58:14  lr: 0.04  img/s: 981.1022272903372  loss_kd: 6.92626953125  loss_ce: 6.92626953125  loss: 6.9466 (7.0201)  acc1: 0.0000 (0.0766)  acc5: 0.3906 (0.5362)  time: 2.0528  data: 1.7870  max mem: 17999
…
