Parsing dataset...
Loading model results/pruned/ConvNext/Small/final_pruned_convnext_small_imagenet_rev16_ratio0.536_full.pt...
ConvNeXt(
  (stem): Sequential(
    (0): Conv2d(3, 42, kernel_size=(4, 4), stride=(4, 4))
    (1): LayerNorm2d((42,), eps=1e-06, elementwise_affine=True)
  )
  (stages): Sequential(
    (0): ConvNeXtStage(
      (downsample): Identity()
      (blocks): Sequential(
        (0): ConvNeXtBlock(
          (conv_dw): Conv2d(42, 42, kernel_size=(7, 7), stride=(1, 1), padding=(3, 3), groups=42)
          (norm): LayerNorm((42,), eps=1e-06, elementwise_affine=True)
          (mlp): Mlp(
            (fc1): Linear(in_features=42, out_features=172, bias=True)
            (act): GELU()
            (drop1): Dropout(p=0.0, inplace=False)
            (norm): Identity()
            (fc2): Linear(in_features=172, out_features=42, bias=True)
            (drop2): Dropout(p=0.0, inplace=False)
          )
          (shortcut): Identity()
          (drop_path): Identity()
        )
        (1): ConvNeXtBlock(
          (conv_dw): Conv2d(42, 42, kernel_size=(7, 7), stride=(1, 1), padding=(3, 3), groups=42)
          (norm): LayerNorm((42,), eps=1e-06, elementwise_affine=True)
          (mlp): Mlp(
            (fc1): Linear(in_features=42, out_features=172, bias=True)
            (act): GELU()
            (drop1): Dropout(p=0.0, inplace=False)
            (norm): Identity()
            (fc2): Linear(in_features=172, out_features=42, bias=True)
            (drop2): Dropout(p=0.0, inplace=False)
          )
          (shortcut): Identity()
          (drop_path): Identity()
        )
        (2): ConvNeXtBlock(
          (conv_dw): Conv2d(42, 42, kernel_size=(7, 7), stride=(1, 1), padding=(3, 3), groups=42)
          (norm): LayerNorm((42,), eps=1e-06, elementwise_affine=True)
          (mlp): Mlp(
            (fc1): Linear(in_features=42, out_features=210, bias=True)
            (act): GELU()
            (drop1): Dropout(p=0.0, inplace=False)
            (norm): Identity()
            (fc2): Linear(in_features=210, out_features=42, bias=True)
            (drop2): Dropout(p=0.0, inplace=False)
          )
          (shortcut): Identity()
          (drop_path): Identity()
        )
      )
    )
    (1): ConvNeXtStage(
      (downsample): Sequential(
        (0): LayerNorm2d((42,), eps=1e-06, elementwise_affine=True)
        (1): Conv2d(42, 75, kernel_size=(2, 2), stride=(2, 2))
      )
      (blocks): Sequential(
        (0): ConvNeXtBlock(
          (conv_dw): Conv2d(75, 75, kernel_size=(7, 7), stride=(1, 1), padding=(3, 3), groups=75)
          (norm): LayerNorm((75,), eps=1e-06, elementwise_affine=True)
          (mlp): Mlp(
            (fc1): Linear(in_features=75, out_features=477, bias=True)
            (act): GELU()
            (drop1): Dropout(p=0.0, inplace=False)
            (norm): Identity()
            (fc2): Linear(in_features=477, out_features=75, bias=True)
            (drop2): Dropout(p=0.0, inplace=False)
          )
          (shortcut): Identity()
          (drop_path): Identity()
        )
        (1): ConvNeXtBlock(
          (conv_dw): Conv2d(75, 75, kernel_size=(7, 7), stride=(1, 1), padding=(3, 3), groups=75)
          (norm): LayerNorm((75,), eps=1e-06, elementwise_affine=True)
          (mlp): Mlp(
            (fc1): Linear(in_features=75, out_features=426, bias=True)
            (act): GELU()
            (drop1): Dropout(p=0.0, inplace=False)
            (norm): Identity()
            (fc2): Linear(in_features=426, out_features=75, bias=True)
            (drop2): Dropout(p=0.0, inplace=False)
          )
          (shortcut): Identity()
          (drop_path): Identity()
        )
        (2): ConvNeXtBlock(
          (conv_dw): Conv2d(75, 75, kernel_size=(7, 7), stride=(1, 1), padding=(3, 3), groups=75)
          (norm): LayerNorm((75,), eps=1e-06, elementwise_affine=True)
          (mlp): Mlp(
            (fc1): Linear(in_features=75, out_features=405, bias=True)
            (act): GELU()
            (drop1): Dropout(p=0.0, inplace=False)
            (norm): Identity()
            (fc2): Linear(in_features=405, out_features=75, bias=True)
            (drop2): Dropout(p=0.0, inplace=False)
          )
          (shortcut): Identity()
          (drop_path): Identity()
        )
      )
    )
    (2): ConvNeXtStage(
      (downsample): Sequential(
        (0): LayerNorm2d((75,), eps=1e-06, elementwise_affine=True)
        (1): Conv2d(75, 150, kernel_size=(2, 2), stride=(2, 2))
      )
      (blocks): Sequential(
        (0): ConvNeXtBlock(
          (conv_dw): Conv2d(150, 150, kernel_size=(7, 7), stride=(1, 1), padding=(3, 3), groups=150)
          (norm): LayerNorm((150,), eps=1e-06, elementwise_affine=True)
          (mlp): Mlp(
            (fc1): Linear(in_features=150, out_features=795, bias=True)
            (act): GELU()
            (drop1): Dropout(p=0.0, inplace=False)
            (norm): Identity()
            (fc2): Linear(in_features=795, out_features=150, bias=True)
            (drop2): Dropout(p=0.0, inplace=False)
          )
          (shortcut): Identity()
          (drop_path): Identity()
        )
        (1): ConvNeXtBlock(
          (conv_dw): Conv2d(150, 150, kernel_size=(7, 7), stride=(1, 1), padding=(3, 3), groups=150)
          (norm): LayerNorm((150,), eps=1e-06, elementwise_affine=True)
          (mlp): Mlp(
            (fc1): Linear(in_features=150, out_features=845, bias=True)
            (act): GELU()
            (drop1): Dropout(p=0.0, inplace=False)
            (norm): Identity()
            (fc2): Linear(in_features=845, out_features=150, bias=True)
            (drop2): Dropout(p=0.0, inplace=False)
          )
          (shortcut): Identity()
          (drop_path): Identity()
        )
        (2): ConvNeXtBlock(
          (conv_dw): Conv2d(150, 150, kernel_size=(7, 7), stride=(1, 1), padding=(3, 3), groups=150)
          (norm): LayerNorm((150,), eps=1e-06, elementwise_affine=True)
          (mlp): Mlp(
            (fc1): Linear(in_features=150, out_features=845, bias=True)
            (act): GELU()
            (drop1): Dropout(p=0.0, inplace=False)
            (norm): Identity()
            (fc2): Linear(in_features=845, out_features=150, bias=True)
            (drop2): Dropout(p=0.0, inplace=False)
          )
          (shortcut): Identity()
          (drop_path): Identity()
        )
        (3): ConvNeXtBlock(
          (conv_dw): Conv2d(150, 150, kernel_size=(7, 7), stride=(1, 1), padding=(3, 3), groups=150)
          (norm): LayerNorm((150,), eps=1e-06, elementwise_affine=True)
          (mlp): Mlp(
            (fc1): Linear(in_features=150, out_features=824, bias=True)
            (act): GELU()
            (drop1): Dropout(p=0.0, inplace=False)
            (norm): Identity()
            (fc2): Linear(in_features=824, out_features=150, bias=True)
            (drop2): Dropout(p=0.0, inplace=False)
          )
          (shortcut): Identity()
          (drop_path): Identity()
        )
        (4): ConvNeXtBlock(
          (conv_dw): Conv2d(150, 150, kernel_size=(7, 7), stride=(1, 1), padding=(3, 3), groups=150)
          (norm): LayerNorm((150,), eps=1e-06, elementwise_affine=True)
          (mlp): Mlp(
            (fc1): Linear(in_features=150, out_features=791, bias=True)
            (act): GELU()
            (drop1): Dropout(p=0.0, inplace=False)
            (norm): Identity()
            (fc2): Linear(in_features=791, out_features=150, bias=True)
            (drop2): Dropout(p=0.0, inplace=False)
          )
          (shortcut): Identity()
          (drop_path): Identity()
        )
        (5): ConvNeXtBlock(
          (conv_dw): Conv2d(150, 150, kernel_size=(7, 7), stride=(1, 1), padding=(3, 3), groups=150)
          (norm): LayerNorm((150,), eps=1e-06, elementwise_affine=True)
          (mlp): Mlp(
            (fc1): Linear(in_features=150, out_features=856, bias=True)
            (act): GELU()
            (drop1): Dropout(p=0.0, inplace=False)
            (norm): Identity()
            (fc2): Linear(in_features=856, out_features=150, bias=True)
            (drop2): Dropout(p=0.0, inplace=False)
          )
          (shortcut): Identity()
          (drop_path): Identity()
        )
        (6): ConvNeXtBlock(
          (conv_dw): Conv2d(150, 150, kernel_size=(7, 7), stride=(1, 1), padding=(3, 3), groups=150)
          (norm): LayerNorm((150,), eps=1e-06, elementwise_affine=True)
          (mlp): Mlp(
            (fc1): Linear(in_features=150, out_features=780, bias=True)
            (act): GELU()
            (drop1): Dropout(p=0.0, inplace=False)
            (norm): Identity()
            (fc2): Linear(in_features=780, out_features=150, bias=True)
            (drop2): Dropout(p=0.0, inplace=False)
          )
          (shortcut): Identity()
          (drop_path): Identity()
        )
        (7): ConvNeXtBlock(
          (conv_dw): Conv2d(150, 150, kernel_size=(7, 7), stride=(1, 1), padding=(3, 3), groups=150)
          (norm): LayerNorm((150,), eps=1e-06, elementwise_affine=True)
          (mlp): Mlp(
            (fc1): Linear(in_features=150, out_features=898, bias=True)
            (act): GELU()
            (drop1): Dropout(p=0.0, inplace=False)
            (norm): Identity()
            (fc2): Linear(in_features=898, out_features=150, bias=True)
            (drop2): Dropout(p=0.0, inplace=False)
          )
          (shortcut): Identity()
          (drop_path): Identity()
        )
        (8): ConvNeXtBlock(
          (conv_dw): Conv2d(150, 150, kernel_size=(7, 7), stride=(1, 1), padding=(3, 3), groups=150)
          (norm): LayerNorm((150,), eps=1e-06, elementwise_affine=True)
          (mlp): Mlp(
            (fc1): Linear(in_features=150, out_features=776, bias=True)
            (act): GELU()
            (drop1): Dropout(p=0.0, inplace=False)
            (norm): Identity()
            (fc2): Linear(in_features=776, out_features=150, bias=True)
            (drop2): Dropout(p=0.0, inplace=False)
          )
          (shortcut): Identity()
          (drop_path): Identity()
        )
        (9): ConvNeXtBlock(
          (conv_dw): Conv2d(150, 150, kernel_size=(7, 7), stride=(1, 1), padding=(3, 3), groups=150)
          (norm): LayerNorm((150,), eps=1e-06, elementwise_affine=True)
          (mlp): Mlp(
            (fc1): Linear(in_features=150, out_features=833, bias=True)
            (act): GELU()
            (drop1): Dropout(p=0.0, inplace=False)
            (norm): Identity()
            (fc2): Linear(in_features=833, out_features=150, bias=True)
            (drop2): Dropout(p=0.0, inplace=False)
          )
          (shortcut): Identity()
          (drop_path): Identity()
        )
        (10): ConvNeXtBlock(
          (conv_dw): Conv2d(150, 150, kernel_size=(7, 7), stride=(1, 1), padding=(3, 3), groups=150)
          (norm): LayerNorm((150,), eps=1e-06, elementwise_affine=True)
          (mlp): Mlp(
            (fc1): Linear(in_features=150, out_features=742, bias=True)
            (act): GELU()
            (drop1): Dropout(p=0.0, inplace=False)
            (norm): Identity()
            (fc2): Linear(in_features=742, out_features=150, bias=True)
            (drop2): Dropout(p=0.0, inplace=False)
          )
          (shortcut): Identity()
          (drop_path): Identity()
        )
        (11): ConvNeXtBlock(
          (conv_dw): Conv2d(150, 150, kernel_size=(7, 7), stride=(1, 1), padding=(3, 3), groups=150)
          (norm): LayerNorm((150,), eps=1e-06, elementwise_affine=True)
          (mlp): Mlp(
            (fc1): Linear(in_features=150, out_features=834, bias=True)
            (act): GELU()
            (drop1): Dropout(p=0.0, inplace=False)
            (norm): Identity()
            (fc2): Linear(in_features=834, out_features=150, bias=True)
            (drop2): Dropout(p=0.0, inplace=False)
          )
          (shortcut): Identity()
          (drop_path): Identity()
        )
        (12): ConvNeXtBlock(
          (conv_dw): Conv2d(150, 150, kernel_size=(7, 7), stride=(1, 1), padding=(3, 3), groups=150)
          (norm): LayerNorm((150,), eps=1e-06, elementwise_affine=True)
          (mlp): Mlp(
            (fc1): Linear(in_features=150, out_features=852, bias=True)
            (act): GELU()
            (drop1): Dropout(p=0.0, inplace=False)
            (norm): Identity()
            (fc2): Linear(in_features=852, out_features=150, bias=True)
            (drop2): Dropout(p=0.0, inplace=False)
          )
          (shortcut): Identity()
          (drop_path): Identity()
        )
        (13): ConvNeXtBlock(
          (conv_dw): Conv2d(150, 150, kernel_size=(7, 7), stride=(1, 1), padding=(3, 3), groups=150)
          (norm): LayerNorm((150,), eps=1e-06, elementwise_affine=True)
          (mlp): Mlp(
            (fc1): Linear(in_features=150, out_features=869, bias=True)
            (act): GELU()
            (drop1): Dropout(p=0.0, inplace=False)
            (norm): Identity()
            (fc2): Linear(in_features=869, out_features=150, bias=True)
            (drop2): Dropout(p=0.0, inplace=False)
          )
          (shortcut): Identity()
          (drop_path): Identity()
        )
        (14): ConvNeXtBlock(
          (conv_dw): Conv2d(150, 150, kernel_size=(7, 7), stride=(1, 1), padding=(3, 3), groups=150)
          (norm): LayerNorm((150,), eps=1e-06, elementwise_affine=True)
          (mlp): Mlp(
            (fc1): Linear(in_features=150, out_features=1067, bias=True)
            (act): GELU()
            (drop1): Dropout(p=0.0, inplace=False)
            (norm): Identity()
            (fc2): Linear(in_features=1067, out_features=150, bias=True)
            (drop2): Dropout(p=0.0, inplace=False)
          )
          (shortcut): Identity()
          (drop_path): Identity()
        )
        (15): ConvNeXtBlock(
          (conv_dw): Conv2d(150, 150, kernel_size=(7, 7), stride=(1, 1), padding=(3, 3), groups=150)
          (norm): LayerNorm((150,), eps=1e-06, elementwise_affine=True)
          (mlp): Mlp(
            (fc1): Linear(in_features=150, out_features=890, bias=True)
            (act): GELU()
            (drop1): Dropout(p=0.0, inplace=False)
            (norm): Identity()
            (fc2): Linear(in_features=890, out_features=150, bias=True)
            (drop2): Dropout(p=0.0, inplace=False)
          )
          (shortcut): Identity()
          (drop_path): Identity()
        )
        (16): ConvNeXtBlock(
          (conv_dw): Conv2d(150, 150, kernel_size=(7, 7), stride=(1, 1), padding=(3, 3), groups=150)
          (norm): LayerNorm((150,), eps=1e-06, elementwise_affine=True)
          (mlp): Mlp(
            (fc1): Linear(in_features=150, out_features=841, bias=True)
            (act): GELU()
            (drop1): Dropout(p=0.0, inplace=False)
            (norm): Identity()
            (fc2): Linear(in_features=841, out_features=150, bias=True)
            (drop2): Dropout(p=0.0, inplace=False)
          )
          (shortcut): Identity()
          (drop_path): Identity()
        )
        (17): ConvNeXtBlock(
          (conv_dw): Conv2d(150, 150, kernel_size=(7, 7), stride=(1, 1), padding=(3, 3), groups=150)
          (norm): LayerNorm((150,), eps=1e-06, elementwise_affine=True)
          (mlp): Mlp(
            (fc1): Linear(in_features=150, out_features=776, bias=True)
            (act): GELU()
            (drop1): Dropout(p=0.0, inplace=False)
            (norm): Identity()
            (fc2): Linear(in_features=776, out_features=150, bias=True)
            (drop2): Dropout(p=0.0, inplace=False)
          )
          (shortcut): Identity()
          (drop_path): Identity()
        )
        (18): ConvNeXtBlock(
          (conv_dw): Conv2d(150, 150, kernel_size=(7, 7), stride=(1, 1), padding=(3, 3), groups=150)
          (norm): LayerNorm((150,), eps=1e-06, elementwise_affine=True)
          (mlp): Mlp(
            (fc1): Linear(in_features=150, out_features=1022, bias=True)
            (act): GELU()
            (drop1): Dropout(p=0.0, inplace=False)
            (norm): Identity()
            (fc2): Linear(in_features=1022, out_features=150, bias=True)
            (drop2): Dropout(p=0.0, inplace=False)
          )
          (shortcut): Identity()
          (drop_path): Identity()
        )
        (19): ConvNeXtBlock(
          (conv_dw): Conv2d(150, 150, kernel_size=(7, 7), stride=(1, 1), padding=(3, 3), groups=150)
          (norm): LayerNorm((150,), eps=1e-06, elementwise_affine=True)
          (mlp): Mlp(
            (fc1): Linear(in_features=150, out_features=922, bias=True)
            (act): GELU()
            (drop1): Dropout(p=0.0, inplace=False)
            (norm): Identity()
            (fc2): Linear(in_features=922, out_features=150, bias=True)
            (drop2): Dropout(p=0.0, inplace=False)
          )
          (shortcut): Identity()
          (drop_path): Identity()
        )
        (20): ConvNeXtBlock(
          (conv_dw): Conv2d(150, 150, kernel_size=(7, 7), stride=(1, 1), padding=(3, 3), groups=150)
          (norm): LayerNorm((150,), eps=1e-06, elementwise_affine=True)
          (mlp): Mlp(
            (fc1): Linear(in_features=150, out_features=847, bias=True)
            (act): GELU()
            (drop1): Dropout(p=0.0, inplace=False)
            (norm): Identity()
            (fc2): Linear(in_features=847, out_features=150, bias=True)
            (drop2): Dropout(p=0.0, inplace=False)
          )
          (shortcut): Identity()
          (drop_path): Identity()
        )
        (21): ConvNeXtBlock(
          (conv_dw): Conv2d(150, 150, kernel_size=(7, 7), stride=(1, 1), padding=(3, 3), groups=150)
          (norm): LayerNorm((150,), eps=1e-06, elementwise_affine=True)
          (mlp): Mlp(
            (fc1): Linear(in_features=150, out_features=842, bias=True)
            (act): GELU()
            (drop1): Dropout(p=0.0, inplace=False)
            (norm): Identity()
            (fc2): Linear(in_features=842, out_features=150, bias=True)
            (drop2): Dropout(p=0.0, inplace=False)
          )
          (shortcut): Identity()
          (drop_path): Identity()
        )
        (22): ConvNeXtBlock(
          (conv_dw): Conv2d(150, 150, kernel_size=(7, 7), stride=(1, 1), padding=(3, 3), groups=150)
          (norm): LayerNorm((150,), eps=1e-06, elementwise_affine=True)
          (mlp): Mlp(
            (fc1): Linear(in_features=150, out_features=872, bias=True)
            (act): GELU()
            (drop1): Dropout(p=0.0, inplace=False)
            (norm): Identity()
            (fc2): Linear(in_features=872, out_features=150, bias=True)
            (drop2): Dropout(p=0.0, inplace=False)
          )
          (shortcut): Identity()
          (drop_path): Identity()
        )
        (23): ConvNeXtBlock(
          (conv_dw): Conv2d(150, 150, kernel_size=(7, 7), stride=(1, 1), padding=(3, 3), groups=150)
          (norm): LayerNorm((150,), eps=1e-06, elementwise_affine=True)
          (mlp): Mlp(
            (fc1): Linear(in_features=150, out_features=902, bias=True)
            (act): GELU()
            (drop1): Dropout(p=0.0, inplace=False)
            (norm): Identity()
            (fc2): Linear(in_features=902, out_features=150, bias=True)
            (drop2): Dropout(p=0.0, inplace=False)
          )
          (shortcut): Identity()
          (drop_path): Identity()
        )
        (24): ConvNeXtBlock(
          (conv_dw): Conv2d(150, 150, kernel_size=(7, 7), stride=(1, 1), padding=(3, 3), groups=150)
          (norm): LayerNorm((150,), eps=1e-06, elementwise_affine=True)
          (mlp): Mlp(
            (fc1): Linear(in_features=150, out_features=894, bias=True)
            (act): GELU()
            (drop1): Dropout(p=0.0, inplace=False)
            (norm): Identity()
            (fc2): Linear(in_features=894, out_features=150, bias=True)
            (drop2): Dropout(p=0.0, inplace=False)
          )
          (shortcut): Identity()
          (drop_path): Identity()
        )
        (25): ConvNeXtBlock(
          (conv_dw): Conv2d(150, 150, kernel_size=(7, 7), stride=(1, 1), padding=(3, 3), groups=150)
          (norm): LayerNorm((150,), eps=1e-06, elementwise_affine=True)
          (mlp): Mlp(
            (fc1): Linear(in_features=150, out_features=923, bias=True)
            (act): GELU()
            (drop1): Dropout(p=0.0, inplace=False)
            (norm): Identity()
            (fc2): Linear(in_features=923, out_features=150, bias=True)
            (drop2): Dropout(p=0.0, inplace=False)
          )
          (shortcut): Identity()
          (drop_path): Identity()
        )
        (26): ConvNeXtBlock(
          (conv_dw): Conv2d(150, 150, kernel_size=(7, 7), stride=(1, 1), padding=(3, 3), groups=150)
          (norm): LayerNorm((150,), eps=1e-06, elementwise_affine=True)
          (mlp): Mlp(
            (fc1): Linear(in_features=150, out_features=985, bias=True)
            (act): GELU()
            (drop1): Dropout(p=0.0, inplace=False)
            (norm): Identity()
            (fc2): Linear(in_features=985, out_features=150, bias=True)
            (drop2): Dropout(p=0.0, inplace=False)
          )
          (shortcut): Identity()
          (drop_path): Identity()
        )
      )
    )
    (3): ConvNeXtStage(
      (downsample): Sequential(
        (0): LayerNorm2d((150,), eps=1e-06, elementwise_affine=True)
        (1): Conv2d(150, 444, kernel_size=(2, 2), stride=(2, 2))
      )
      (blocks): Sequential(
        (0): ConvNeXtBlock(
          (conv_dw): Conv2d(444, 444, kernel_size=(7, 7), stride=(1, 1), padding=(3, 3), groups=444)
          (norm): LayerNorm((444,), eps=1e-06, elementwise_affine=True)
          (mlp): Mlp(
            (fc1): Linear(in_features=444, out_features=2057, bias=True)
            (act): GELU()
            (drop1): Dropout(p=0.0, inplace=False)
            (norm): Identity()
            (fc2): Linear(in_features=2057, out_features=444, bias=True)
            (drop2): Dropout(p=0.0, inplace=False)
          )
          (shortcut): Identity()
          (drop_path): Identity()
        )
        (1): ConvNeXtBlock(
          (conv_dw): Conv2d(444, 444, kernel_size=(7, 7), stride=(1, 1), padding=(3, 3), groups=444)
          (norm): LayerNorm((444,), eps=1e-06, elementwise_affine=True)
          (mlp): Mlp(
            (fc1): Linear(in_features=444, out_features=2300, bias=True)
            (act): GELU()
            (drop1): Dropout(p=0.0, inplace=False)
            (norm): Identity()
            (fc2): Linear(in_features=2300, out_features=444, bias=True)
            (drop2): Dropout(p=0.0, inplace=False)
          )
          (shortcut): Identity()
          (drop_path): Identity()
        )
        (2): ConvNeXtBlock(
          (conv_dw): Conv2d(444, 444, kernel_size=(7, 7), stride=(1, 1), padding=(3, 3), groups=444)
          (norm): LayerNorm((444,), eps=1e-06, elementwise_affine=True)
          (mlp): Mlp(
            (fc1): Linear(in_features=444, out_features=1874, bias=True)
            (act): GELU()
            (drop1): Dropout(p=0.0, inplace=False)
            (norm): Identity()
            (fc2): Linear(in_features=1874, out_features=444, bias=True)
            (drop2): Dropout(p=0.0, inplace=False)
          )
          (shortcut): Identity()
          (drop_path): Identity()
        )
      )
    )
  )
  (norm_pre): Identity()
  (head): NormMlpClassifierHead(
    (global_pool): SelectAdaptivePool2d(pool_type=avg, flatten=Identity())
    (norm): LayerNorm2d((444,), eps=1e-06, elementwise_affine=True)
    (flatten): Flatten(start_dim=1, end_dim=-1)
    (pre_logits): Identity()
    (drop): Dropout(p=0.0, inplace=False)
    (fc): Linear(in_features=444, out_features=1000, bias=True)
  )
)
MACs: 2.0526 G, Params: 13.8870 M
Evaluating results/pruned/ConvNext/Small/final_pruned_convnext_small_imagenet_rev16_ratio0.536_full.pt...
Accuracy: 0.0019, Loss: 7.6829
