Parsing dataset...
Loading model results/pruned/ResNet50/final_pruned_resnet50_imagenet_rev3_ratio0.508_full.pt...
ResNet(
  (conv1): Conv2d(3, 64, kernel_size=(7, 7), stride=(2, 2), padding=(3, 3), bias=False)
  (bn1): BatchNorm2d(64, eps=1e-05, momentum=0.1, affine=True, track_running_stats=True)
  (act1): ReLU(inplace=True)
  (maxpool): MaxPool2d(kernel_size=3, stride=2, padding=1, dilation=1, ceil_mode=False)
  (layer1): Sequential(
    (0): Bottleneck(
      (conv1): Conv2d(64, 24, kernel_size=(1, 1), stride=(1, 1), bias=False)
      (bn1): BatchNorm2d(24, eps=1e-05, momentum=0.1, affine=True, track_running_stats=True)
      (act1): ReLU(inplace=True)
      (conv2): Conv2d(24, 28, kernel_size=(3, 3), stride=(1, 1), padding=(1, 1), bias=False)
      (bn2): BatchNorm2d(28, eps=1e-05, momentum=0.1, affine=True, track_running_stats=True)
      (drop_block): Identity()
      (act2): ReLU(inplace=True)
      (aa): Identity()
      (conv3): Conv2d(28, 168, kernel_size=(1, 1), stride=(1, 1), bias=False)
      (bn3): BatchNorm2d(168, eps=1e-05, momentum=0.1, affine=True, track_running_stats=True)
      (act3): ReLU(inplace=True)
      (downsample): Sequential(
        (0): Conv2d(64, 168, kernel_size=(1, 1), stride=(1, 1), bias=False)
        (1): BatchNorm2d(168, eps=1e-05, momentum=0.1, affine=True, track_running_stats=True)
      )
    )
    (1): Bottleneck(
      (conv1): Conv2d(168, 32, kernel_size=(1, 1), stride=(1, 1), bias=False)
      (bn1): BatchNorm2d(32, eps=1e-05, momentum=0.1, affine=True, track_running_stats=True)
      (act1): ReLU(inplace=True)
      (conv2): Conv2d(32, 36, kernel_size=(3, 3), stride=(1, 1), padding=(1, 1), bias=False)
      (bn2): BatchNorm2d(36, eps=1e-05, momentum=0.1, affine=True, track_running_stats=True)
      (drop_block): Identity()
      (act2): ReLU(inplace=True)
      (aa): Identity()
      (conv3): Conv2d(36, 168, kernel_size=(1, 1), stride=(1, 1), bias=False)
      (bn3): BatchNorm2d(168, eps=1e-05, momentum=0.1, affine=True, track_running_stats=True)
      (act3): ReLU(inplace=True)
    )
    (2): Bottleneck(
      (conv1): Conv2d(168, 52, kernel_size=(1, 1), stride=(1, 1), bias=False)
      (bn1): BatchNorm2d(52, eps=1e-05, momentum=0.1, affine=True, track_running_stats=True)
      (act1): ReLU(inplace=True)
      (conv2): Conv2d(52, 48, kernel_size=(3, 3), stride=(1, 1), padding=(1, 1), bias=False)
      (bn2): BatchNorm2d(48, eps=1e-05, momentum=0.1, affine=True, track_running_stats=True)
      (drop_block): Identity()
      (act2): ReLU(inplace=True)
      (aa): Identity()
      (conv3): Conv2d(48, 168, kernel_size=(1, 1), stride=(1, 1), bias=False)
      (bn3): BatchNorm2d(168, eps=1e-05, momentum=0.1, affine=True, track_running_stats=True)
      (act3): ReLU(inplace=True)
    )
  )
  (layer2): Sequential(
    (0): Bottleneck(
      (conv1): Conv2d(168, 100, kernel_size=(1, 1), stride=(1, 1), bias=False)
      (bn1): BatchNorm2d(100, eps=1e-05, momentum=0.1, affine=True, track_running_stats=True)
      (act1): ReLU(inplace=True)
      (conv2): Conv2d(100, 84, kernel_size=(3, 3), stride=(2, 2), padding=(1, 1), bias=False)
      (bn2): BatchNorm2d(84, eps=1e-05, momentum=0.1, affine=True, track_running_stats=True)
      (drop_block): Identity()
      (act2): ReLU(inplace=True)
      (aa): Identity()
      (conv3): Conv2d(84, 372, kernel_size=(1, 1), stride=(1, 1), bias=False)
      (bn3): BatchNorm2d(372, eps=1e-05, momentum=0.1, affine=True, track_running_stats=True)
      (act3): ReLU(inplace=True)
      (downsample): Sequential(
        (0): Conv2d(168, 372, kernel_size=(1, 1), stride=(2, 2), bias=False)
        (1): BatchNorm2d(372, eps=1e-05, momentum=0.1, affine=True, track_running_stats=True)
      )
    )
    (1): Bottleneck(
      (conv1): Conv2d(372, 60, kernel_size=(1, 1), stride=(1, 1), bias=False)
      (bn1): BatchNorm2d(60, eps=1e-05, momentum=0.1, affine=True, track_running_stats=True)
      (act1): ReLU(inplace=True)
      (conv2): Conv2d(60, 80, kernel_size=(3, 3), stride=(1, 1), padding=(1, 1), bias=False)
      (bn2): BatchNorm2d(80, eps=1e-05, momentum=0.1, affine=True, track_running_stats=True)
      (drop_block): Identity()
      (act2): ReLU(inplace=True)
      (aa): Identity()
      (conv3): Conv2d(80, 372, kernel_size=(1, 1), stride=(1, 1), bias=False)
      (bn3): BatchNorm2d(372, eps=1e-05, momentum=0.1, affine=True, track_running_stats=True)
      (act3): ReLU(inplace=True)
    )
    (2): Bottleneck(
      (conv1): Conv2d(372, 84, kernel_size=(1, 1), stride=(1, 1), bias=False)
      (bn1): BatchNorm2d(84, eps=1e-05, momentum=0.1, affine=True, track_running_stats=True)
      (act1): ReLU(inplace=True)
      (conv2): Conv2d(84, 96, kernel_size=(3, 3), stride=(1, 1), padding=(1, 1), bias=False)
      (bn2): BatchNorm2d(96, eps=1e-05, momentum=0.1, affine=True, track_running_stats=True)
      (drop_block): Identity()
      (act2): ReLU(inplace=True)
      (aa): Identity()
      (conv3): Conv2d(96, 372, kernel_size=(1, 1), stride=(1, 1), bias=False)
      (bn3): BatchNorm2d(372, eps=1e-05, momentum=0.1, affine=True, track_running_stats=True)
      (act3): ReLU(inplace=True)
    )
    (3): Bottleneck(
      (conv1): Conv2d(372, 76, kernel_size=(1, 1), stride=(1, 1), bias=False)
      (bn1): BatchNorm2d(76, eps=1e-05, momentum=0.1, affine=True, track_running_stats=True)
      (act1): ReLU(inplace=True)
      (conv2): Conv2d(76, 72, kernel_size=(3, 3), stride=(1, 1), padding=(1, 1), bias=False)
      (bn2): BatchNorm2d(72, eps=1e-05, momentum=0.1, affine=True, track_running_stats=True)
      (drop_block): Identity()
      (act2): ReLU(inplace=True)
      (aa): Identity()
      (conv3): Conv2d(72, 372, kernel_size=(1, 1), stride=(1, 1), bias=False)
      (bn3): BatchNorm2d(372, eps=1e-05, momentum=0.1, affine=True, track_running_stats=True)
      (act3): ReLU(inplace=True)
    )
  )
  (layer3): Sequential(
    (0): Bottleneck(
      (conv1): Conv2d(372, 228, kernel_size=(1, 1), stride=(1, 1), bias=False)
      (bn1): BatchNorm2d(228, eps=1e-05, momentum=0.1, affine=True, track_running_stats=True)
      (act1): ReLU(inplace=True)
      (conv2): Conv2d(228, 156, kernel_size=(3, 3), stride=(2, 2), padding=(1, 1), bias=False)
      (bn2): BatchNorm2d(156, eps=1e-05, momentum=0.1, affine=True, track_running_stats=True)
      (drop_block): Identity()
      (act2): ReLU(inplace=True)
      (aa): Identity()
      (conv3): Conv2d(156, 952, kernel_size=(1, 1), stride=(1, 1), bias=False)
      (bn3): BatchNorm2d(952, eps=1e-05, momentum=0.1, affine=True, track_running_stats=True)
      (act3): ReLU(inplace=True)
      (downsample): Sequential(
        (0): Conv2d(372, 952, kernel_size=(1, 1), stride=(2, 2), bias=False)
        (1): BatchNorm2d(952, eps=1e-05, momentum=0.1, affine=True, track_running_stats=True)
      )
    )
    (1): Bottleneck(
      (conv1): Conv2d(952, 184, kernel_size=(1, 1), stride=(1, 1), bias=False)
      (bn1): BatchNorm2d(184, eps=1e-05, momentum=0.1, affine=True, track_running_stats=True)
      (act1): ReLU(inplace=True)
      (conv2): Conv2d(184, 156, kernel_size=(3, 3), stride=(1, 1), padding=(1, 1), bias=False)
      (bn2): BatchNorm2d(156, eps=1e-05, momentum=0.1, affine=True, track_running_stats=True)
      (drop_block): Identity()
      (act2): ReLU(inplace=True)
      (aa): Identity()
      (conv3): Conv2d(156, 952, kernel_size=(1, 1), stride=(1, 1), bias=False)
      (bn3): BatchNorm2d(952, eps=1e-05, momentum=0.1, affine=True, track_running_stats=True)
      (act3): ReLU(inplace=True)
    )
    (2): Bottleneck(
      (conv1): Conv2d(952, 192, kernel_size=(1, 1), stride=(1, 1), bias=False)
      (bn1): BatchNorm2d(192, eps=1e-05, momentum=0.1, affine=True, track_running_stats=True)
      (act1): ReLU(inplace=True)
      (conv2): Conv2d(192, 192, kernel_size=(3, 3), stride=(1, 1), padding=(1, 1), bias=False)
      (bn2): BatchNorm2d(192, eps=1e-05, momentum=0.1, affine=True, track_running_stats=True)
      (drop_block): Identity()
      (act2): ReLU(inplace=True)
      (aa): Identity()
      (conv3): Conv2d(192, 952, kernel_size=(1, 1), stride=(1, 1), bias=False)
      (bn3): BatchNorm2d(952, eps=1e-05, momentum=0.1, affine=True, track_running_stats=True)
      (act3): ReLU(inplace=True)
    )
    (3): Bottleneck(
      (conv1): Conv2d(952, 212, kernel_size=(1, 1), stride=(1, 1), bias=False)
      (bn1): BatchNorm2d(212, eps=1e-05, momentum=0.1, affine=True, track_running_stats=True)
      (act1): ReLU(inplace=True)
      (conv2): Conv2d(212, 208, kernel_size=(3, 3), stride=(1, 1), padding=(1, 1), bias=False)
      (bn2): BatchNorm2d(208, eps=1e-05, momentum=0.1, affine=True, track_running_stats=True)
      (drop_block): Identity()
      (act2): ReLU(inplace=True)
      (aa): Identity()
      (conv3): Conv2d(208, 952, kernel_size=(1, 1), stride=(1, 1), bias=False)
      (bn3): BatchNorm2d(952, eps=1e-05, momentum=0.1, affine=True, track_running_stats=True)
      (act3): ReLU(inplace=True)
    )
    (4): Bottleneck(
      (conv1): Conv2d(952, 216, kernel_size=(1, 1), stride=(1, 1), bias=False)
      (bn1): BatchNorm2d(216, eps=1e-05, momentum=0.1, affine=True, track_running_stats=True)
      (act1): ReLU(inplace=True)
      (conv2): Conv2d(216, 200, kernel_size=(3, 3), stride=(1, 1), padding=(1, 1), bias=False)
      (bn2): BatchNorm2d(200, eps=1e-05, momentum=0.1, affine=True, track_running_stats=True)
      (drop_block): Identity()
      (act2): ReLU(inplace=True)
      (aa): Identity()
      (conv3): Conv2d(200, 952, kernel_size=(1, 1), stride=(1, 1), bias=False)
      (bn3): BatchNorm2d(952, eps=1e-05, momentum=0.1, affine=True, track_running_stats=True)
      (act3): ReLU(inplace=True)
    )
    (5): Bottleneck(
      (conv1): Conv2d(952, 216, kernel_size=(1, 1), stride=(1, 1), bias=False)
      (bn1): BatchNorm2d(216, eps=1e-05, momentum=0.1, affine=True, track_running_stats=True)
      (act1): ReLU(inplace=True)
      (conv2): Conv2d(216, 200, kernel_size=(3, 3), stride=(1, 1), padding=(1, 1), bias=False)
      (bn2): BatchNorm2d(200, eps=1e-05, momentum=0.1, affine=True, track_running_stats=True)
      (drop_block): Identity()
      (act2): ReLU(inplace=True)
      (aa): Identity()
      (conv3): Conv2d(200, 952, kernel_size=(1, 1), stride=(1, 1), bias=False)
      (bn3): BatchNorm2d(952, eps=1e-05, momentum=0.1, affine=True, track_running_stats=True)
      (act3): ReLU(inplace=True)
    )
  )
  (layer4): Sequential(
    (0): Bottleneck(
      (conv1): Conv2d(952, 484, kernel_size=(1, 1), stride=(1, 1), bias=False)
      (bn1): BatchNorm2d(484, eps=1e-05, momentum=0.1, affine=True, track_running_stats=True)
      (act1): ReLU(inplace=True)
      (conv2): Conv2d(484, 492, kernel_size=(3, 3), stride=(2, 2), padding=(1, 1), bias=False)
      (bn2): BatchNorm2d(492, eps=1e-05, momentum=0.1, affine=True, track_running_stats=True)
      (drop_block): Identity()
      (act2): ReLU(inplace=True)
      (aa): Identity()
      (conv3): Conv2d(492, 1580, kernel_size=(1, 1), stride=(1, 1), bias=False)
      (bn3): BatchNorm2d(1580, eps=1e-05, momentum=0.1, affine=True, track_running_stats=True)
      (act3): ReLU(inplace=True)
      (downsample): Sequential(
        (0): Conv2d(952, 1580, kernel_size=(1, 1), stride=(2, 2), bias=False)
        (1): BatchNorm2d(1580, eps=1e-05, momentum=0.1, affine=True, track_running_stats=True)
      )
    )
    (1): Bottleneck(
      (conv1): Conv2d(1580, 496, kernel_size=(1, 1), stride=(1, 1), bias=False)
      (bn1): BatchNorm2d(496, eps=1e-05, momentum=0.1, affine=True, track_running_stats=True)
      (act1): ReLU(inplace=True)
      (conv2): Conv2d(496, 448, kernel_size=(3, 3), stride=(1, 1), padding=(1, 1), bias=False)
      (bn2): BatchNorm2d(448, eps=1e-05, momentum=0.1, affine=True, track_running_stats=True)
      (drop_block): Identity()
      (act2): ReLU(inplace=True)
      (aa): Identity()
      (conv3): Conv2d(448, 1580, kernel_size=(1, 1), stride=(1, 1), bias=False)
      (bn3): BatchNorm2d(1580, eps=1e-05, momentum=0.1, affine=True, track_running_stats=True)
      (act3): ReLU(inplace=True)
    )
    (2): Bottleneck(
      (conv1): Conv2d(1580, 384, kernel_size=(1, 1), stride=(1, 1), bias=False)
      (bn1): BatchNorm2d(384, eps=1e-05, momentum=0.1, affine=True, track_running_stats=True)
      (act1): ReLU(inplace=True)
      (conv2): Conv2d(384, 400, kernel_size=(3, 3), stride=(1, 1), padding=(1, 1), bias=False)
      (bn2): BatchNorm2d(400, eps=1e-05, momentum=0.1, affine=True, track_running_stats=True)
      (drop_block): Identity()
      (act2): ReLU(inplace=True)
      (aa): Identity()
      (conv3): Conv2d(400, 1580, kernel_size=(1, 1), stride=(1, 1), bias=False)
      (bn3): BatchNorm2d(1580, eps=1e-05, momentum=0.1, affine=True, track_running_stats=True)
      (act3): ReLU(inplace=True)
    )
  )
  (global_pool): SelectAdaptivePool2d(pool_type=avg, flatten=Flatten(start_dim=1, end_dim=-1))
  (fc): Linear(in_features=1580, out_features=1000, bias=True)
)
MACs: 2.4081 G, Params: 17.7941 M
Evaluating results/pruned/ResNet50/final_pruned_resnet50_imagenet_rev3_ratio0.508_full.pt...
Accuracy: 0.0061, Loss: 7.4795
