Parsing dataset...
Loading model results/pruned/ResNet101/final_pruned_resnet101_imagenet_rev1_ratio0.428_full.pt...
ResNet(
  (conv1): Conv2d(3, 64, kernel_size=(7, 7), stride=(2, 2), padding=(3, 3), bias=False)
  (bn1): BatchNorm2d(64, eps=1e-05, momentum=0.1, affine=True, track_running_stats=True)
  (act1): ReLU(inplace=True)
  (maxpool): MaxPool2d(kernel_size=3, stride=2, padding=1, dilation=1, ceil_mode=False)
  (layer1): Sequential(
    (0): Bottleneck(
      (conv1): Conv2d(64, 40, kernel_size=(1, 1), stride=(1, 1), bias=False)
      (bn1): BatchNorm2d(40, eps=1e-05, momentum=0.1, affine=True, track_running_stats=True)
      (act1): ReLU(inplace=True)
      (conv2): Conv2d(40, 48, kernel_size=(3, 3), stride=(1, 1), padding=(1, 1), bias=False)
      (bn2): BatchNorm2d(48, eps=1e-05, momentum=0.1, affine=True, track_running_stats=True)
      (drop_block): Identity()
      (act2): ReLU(inplace=True)
      (aa): Identity()
      (conv3): Conv2d(48, 216, kernel_size=(1, 1), stride=(1, 1), bias=False)
      (bn3): BatchNorm2d(216, eps=1e-05, momentum=0.1, affine=True, track_running_stats=True)
      (act3): ReLU(inplace=True)
      (downsample): Sequential(
        (0): Conv2d(64, 216, kernel_size=(1, 1), stride=(1, 1), bias=False)
        (1): BatchNorm2d(216, eps=1e-05, momentum=0.1, affine=True, track_running_stats=True)
      )
    )
    (1): Bottleneck(
      (conv1): Conv2d(216, 56, kernel_size=(1, 1), stride=(1, 1), bias=False)
      (bn1): BatchNorm2d(56, eps=1e-05, momentum=0.1, affine=True, track_running_stats=True)
      (act1): ReLU(inplace=True)
      (conv2): Conv2d(56, 52, kernel_size=(3, 3), stride=(1, 1), padding=(1, 1), bias=False)
      (bn2): BatchNorm2d(52, eps=1e-05, momentum=0.1, affine=True, track_running_stats=True)
      (drop_block): Identity()
      (act2): ReLU(inplace=True)
      (aa): Identity()
      (conv3): Conv2d(52, 216, kernel_size=(1, 1), stride=(1, 1), bias=False)
      (bn3): BatchNorm2d(216, eps=1e-05, momentum=0.1, affine=True, track_running_stats=True)
      (act3): ReLU(inplace=True)
    )
    (2): Bottleneck(
      (conv1): Conv2d(216, 56, kernel_size=(1, 1), stride=(1, 1), bias=False)
      (bn1): BatchNorm2d(56, eps=1e-05, momentum=0.1, affine=True, track_running_stats=True)
      (act1): ReLU(inplace=True)
      (conv2): Conv2d(56, 60, kernel_size=(3, 3), stride=(1, 1), padding=(1, 1), bias=False)
      (bn2): BatchNorm2d(60, eps=1e-05, momentum=0.1, affine=True, track_running_stats=True)
      (drop_block): Identity()
      (act2): ReLU(inplace=True)
      (aa): Identity()
      (conv3): Conv2d(60, 216, kernel_size=(1, 1), stride=(1, 1), bias=False)
      (bn3): BatchNorm2d(216, eps=1e-05, momentum=0.1, affine=True, track_running_stats=True)
      (act3): ReLU(inplace=True)
    )
  )
  (layer2): Sequential(
    (0): Bottleneck(
      (conv1): Conv2d(216, 120, kernel_size=(1, 1), stride=(1, 1), bias=False)
      (bn1): BatchNorm2d(120, eps=1e-05, momentum=0.1, affine=True, track_running_stats=True)
      (act1): ReLU(inplace=True)
      (conv2): Conv2d(120, 128, kernel_size=(3, 3), stride=(2, 2), padding=(1, 1), bias=False)
      (bn2): BatchNorm2d(128, eps=1e-05, momentum=0.1, affine=True, track_running_stats=True)
      (drop_block): Identity()
      (act2): ReLU(inplace=True)
      (aa): Identity()
      (conv3): Conv2d(128, 460, kernel_size=(1, 1), stride=(1, 1), bias=False)
      (bn3): BatchNorm2d(460, eps=1e-05, momentum=0.1, affine=True, track_running_stats=True)
      (act3): ReLU(inplace=True)
      (downsample): Sequential(
        (0): Conv2d(216, 460, kernel_size=(1, 1), stride=(2, 2), bias=False)
        (1): BatchNorm2d(460, eps=1e-05, momentum=0.1, affine=True, track_running_stats=True)
      )
    )
    (1): Bottleneck(
      (conv1): Conv2d(460, 96, kernel_size=(1, 1), stride=(1, 1), bias=False)
      (bn1): BatchNorm2d(96, eps=1e-05, momentum=0.1, affine=True, track_running_stats=True)
      (act1): ReLU(inplace=True)
      (conv2): Conv2d(96, 108, kernel_size=(3, 3), stride=(1, 1), padding=(1, 1), bias=False)
      (bn2): BatchNorm2d(108, eps=1e-05, momentum=0.1, affine=True, track_running_stats=True)
      (drop_block): Identity()
      (act2): ReLU(inplace=True)
      (aa): Identity()
      (conv3): Conv2d(108, 460, kernel_size=(1, 1), stride=(1, 1), bias=False)
      (bn3): BatchNorm2d(460, eps=1e-05, momentum=0.1, affine=True, track_running_stats=True)
      (act3): ReLU(inplace=True)
    )
    (2): Bottleneck(
      (conv1): Conv2d(460, 108, kernel_size=(1, 1), stride=(1, 1), bias=False)
      (bn1): BatchNorm2d(108, eps=1e-05, momentum=0.1, affine=True, track_running_stats=True)
      (act1): ReLU(inplace=True)
      (conv2): Conv2d(108, 108, kernel_size=(3, 3), stride=(1, 1), padding=(1, 1), bias=False)
      (bn2): BatchNorm2d(108, eps=1e-05, momentum=0.1, affine=True, track_running_stats=True)
      (drop_block): Identity()
      (act2): ReLU(inplace=True)
      (aa): Identity()
      (conv3): Conv2d(108, 460, kernel_size=(1, 1), stride=(1, 1), bias=False)
      (bn3): BatchNorm2d(460, eps=1e-05, momentum=0.1, affine=True, track_running_stats=True)
      (act3): ReLU(inplace=True)
    )
    (3): Bottleneck(
      (conv1): Conv2d(460, 112, kernel_size=(1, 1), stride=(1, 1), bias=False)
      (bn1): BatchNorm2d(112, eps=1e-05, momentum=0.1, affine=True, track_running_stats=True)
      (act1): ReLU(inplace=True)
      (conv2): Conv2d(112, 120, kernel_size=(3, 3), stride=(1, 1), padding=(1, 1), bias=False)
      (bn2): BatchNorm2d(120, eps=1e-05, momentum=0.1, affine=True, track_running_stats=True)
      (drop_block): Identity()
      (act2): ReLU(inplace=True)
      (aa): Identity()
      (conv3): Conv2d(120, 460, kernel_size=(1, 1), stride=(1, 1), bias=False)
      (bn3): BatchNorm2d(460, eps=1e-05, momentum=0.1, affine=True, track_running_stats=True)
      (act3): ReLU(inplace=True)
    )
  )
  (layer3): Sequential(
    (0): Bottleneck(
      (conv1): Conv2d(460, 224, kernel_size=(1, 1), stride=(1, 1), bias=False)
      (bn1): BatchNorm2d(224, eps=1e-05, momentum=0.1, affine=True, track_running_stats=True)
      (act1): ReLU(inplace=True)
      (conv2): Conv2d(224, 220, kernel_size=(3, 3), stride=(2, 2), padding=(1, 1), bias=False)
      (bn2): BatchNorm2d(220, eps=1e-05, momentum=0.1, affine=True, track_running_stats=True)
      (drop_block): Identity()
      (act2): ReLU(inplace=True)
      (aa): Identity()
      (conv3): Conv2d(220, 972, kernel_size=(1, 1), stride=(1, 1), bias=False)
      (bn3): BatchNorm2d(972, eps=1e-05, momentum=0.1, affine=True, track_running_stats=True)
      (act3): ReLU(inplace=True)
      (downsample): Sequential(
        (0): Conv2d(460, 972, kernel_size=(1, 1), stride=(2, 2), bias=False)
        (1): BatchNorm2d(972, eps=1e-05, momentum=0.1, affine=True, track_running_stats=True)
      )
    )
    (1): Bottleneck(
      (conv1): Conv2d(972, 188, kernel_size=(1, 1), stride=(1, 1), bias=False)
      (bn1): BatchNorm2d(188, eps=1e-05, momentum=0.1, affine=True, track_running_stats=True)
      (act1): ReLU(inplace=True)
      (conv2): Conv2d(188, 216, kernel_size=(3, 3), stride=(1, 1), padding=(1, 1), bias=False)
      (bn2): BatchNorm2d(216, eps=1e-05, momentum=0.1, affine=True, track_running_stats=True)
      (drop_block): Identity()
      (act2): ReLU(inplace=True)
      (aa): Identity()
      (conv3): Conv2d(216, 972, kernel_size=(1, 1), stride=(1, 1), bias=False)
      (bn3): BatchNorm2d(972, eps=1e-05, momentum=0.1, affine=True, track_running_stats=True)
      (act3): ReLU(inplace=True)
    )
    (2): Bottleneck(
      (conv1): Conv2d(972, 192, kernel_size=(1, 1), stride=(1, 1), bias=False)
      (bn1): BatchNorm2d(192, eps=1e-05, momentum=0.1, affine=True, track_running_stats=True)
      (act1): ReLU(inplace=True)
      (conv2): Conv2d(192, 216, kernel_size=(3, 3), stride=(1, 1), padding=(1, 1), bias=False)
      (bn2): BatchNorm2d(216, eps=1e-05, momentum=0.1, affine=True, track_running_stats=True)
      (drop_block): Identity()
      (act2): ReLU(inplace=True)
      (aa): Identity()
      (conv3): Conv2d(216, 972, kernel_size=(1, 1), stride=(1, 1), bias=False)
      (bn3): BatchNorm2d(972, eps=1e-05, momentum=0.1, affine=True, track_running_stats=True)
      (act3): ReLU(inplace=True)
    )
    (3): Bottleneck(
      (conv1): Conv2d(972, 200, kernel_size=(1, 1), stride=(1, 1), bias=False)
      (bn1): BatchNorm2d(200, eps=1e-05, momentum=0.1, affine=True, track_running_stats=True)
      (act1): ReLU(inplace=True)
      (conv2): Conv2d(200, 220, kernel_size=(3, 3), stride=(1, 1), padding=(1, 1), bias=False)
      (bn2): BatchNorm2d(220, eps=1e-05, momentum=0.1, affine=True, track_running_stats=True)
      (drop_block): Identity()
      (act2): ReLU(inplace=True)
      (aa): Identity()
      (conv3): Conv2d(220, 972, kernel_size=(1, 1), stride=(1, 1), bias=False)
      (bn3): BatchNorm2d(972, eps=1e-05, momentum=0.1, affine=True, track_running_stats=True)
      (act3): ReLU(inplace=True)
    )
    (4): Bottleneck(
      (conv1): Conv2d(972, 228, kernel_size=(1, 1), stride=(1, 1), bias=False)
      (bn1): BatchNorm2d(228, eps=1e-05, momentum=0.1, affine=True, track_running_stats=True)
      (act1): ReLU(inplace=True)
      (conv2): Conv2d(228, 240, kernel_size=(3, 3), stride=(1, 1), padding=(1, 1), bias=False)
      (bn2): BatchNorm2d(240, eps=1e-05, momentum=0.1, affine=True, track_running_stats=True)
      (drop_block): Identity()
      (act2): ReLU(inplace=True)
      (aa): Identity()
      (conv3): Conv2d(240, 972, kernel_size=(1, 1), stride=(1, 1), bias=False)
      (bn3): BatchNorm2d(972, eps=1e-05, momentum=0.1, affine=True, track_running_stats=True)
      (act3): ReLU(inplace=True)
    )
    (5): Bottleneck(
      (conv1): Conv2d(972, 208, kernel_size=(1, 1), stride=(1, 1), bias=False)
      (bn1): BatchNorm2d(208, eps=1e-05, momentum=0.1, affine=True, track_running_stats=True)
      (act1): ReLU(inplace=True)
      (conv2): Conv2d(208, 220, kernel_size=(3, 3), stride=(1, 1), padding=(1, 1), bias=False)
      (bn2): BatchNorm2d(220, eps=1e-05, momentum=0.1, affine=True, track_running_stats=True)
      (drop_block): Identity()
      (act2): ReLU(inplace=True)
      (aa): Identity()
      (conv3): Conv2d(220, 972, kernel_size=(1, 1), stride=(1, 1), bias=False)
      (bn3): BatchNorm2d(972, eps=1e-05, momentum=0.1, affine=True, track_running_stats=True)
      (act3): ReLU(inplace=True)
    )
    (6): Bottleneck(
      (conv1): Conv2d(972, 212, kernel_size=(1, 1), stride=(1, 1), bias=False)
      (bn1): BatchNorm2d(212, eps=1e-05, momentum=0.1, affine=True, track_running_stats=True)
      (act1): ReLU(inplace=True)
      (conv2): Conv2d(212, 216, kernel_size=(3, 3), stride=(1, 1), padding=(1, 1), bias=False)
      (bn2): BatchNorm2d(216, eps=1e-05, momentum=0.1, affine=True, track_running_stats=True)
      (drop_block): Identity()
      (act2): ReLU(inplace=True)
      (aa): Identity()
      (conv3): Conv2d(216, 972, kernel_size=(1, 1), stride=(1, 1), bias=False)
      (bn3): BatchNorm2d(972, eps=1e-05, momentum=0.1, affine=True, track_running_stats=True)
      (act3): ReLU(inplace=True)
    )
    (7): Bottleneck(
      (conv1): Conv2d(972, 180, kernel_size=(1, 1), stride=(1, 1), bias=False)
      (bn1): BatchNorm2d(180, eps=1e-05, momentum=0.1, affine=True, track_running_stats=True)
      (act1): ReLU(inplace=True)
      (conv2): Conv2d(180, 164, kernel_size=(3, 3), stride=(1, 1), padding=(1, 1), bias=False)
      (bn2): BatchNorm2d(164, eps=1e-05, momentum=0.1, affine=True, track_running_stats=True)
      (drop_block): Identity()
      (act2): ReLU(inplace=True)
      (aa): Identity()
      (conv3): Conv2d(164, 972, kernel_size=(1, 1), stride=(1, 1), bias=False)
      (bn3): BatchNorm2d(972, eps=1e-05, momentum=0.1, affine=True, track_running_stats=True)
      (act3): ReLU(inplace=True)
    )
    (8): Bottleneck(
      (conv1): Conv2d(972, 176, kernel_size=(1, 1), stride=(1, 1), bias=False)
      (bn1): BatchNorm2d(176, eps=1e-05, momentum=0.1, affine=True, track_running_stats=True)
      (act1): ReLU(inplace=True)
      (conv2): Conv2d(176, 192, kernel_size=(3, 3), stride=(1, 1), padding=(1, 1), bias=False)
      (bn2): BatchNorm2d(192, eps=1e-05, momentum=0.1, affine=True, track_running_stats=True)
      (drop_block): Identity()
      (act2): ReLU(inplace=True)
      (aa): Identity()
      (conv3): Conv2d(192, 972, kernel_size=(1, 1), stride=(1, 1), bias=False)
      (bn3): BatchNorm2d(972, eps=1e-05, momentum=0.1, affine=True, track_running_stats=True)
      (act3): ReLU(inplace=True)
    )
    (9): Bottleneck(
      (conv1): Conv2d(972, 196, kernel_size=(1, 1), stride=(1, 1), bias=False)
      (bn1): BatchNorm2d(196, eps=1e-05, momentum=0.1, affine=True, track_running_stats=True)
      (act1): ReLU(inplace=True)
      (conv2): Conv2d(196, 192, kernel_size=(3, 3), stride=(1, 1), padding=(1, 1), bias=False)
      (bn2): BatchNorm2d(192, eps=1e-05, momentum=0.1, affine=True, track_running_stats=True)
      (drop_block): Identity()
      (act2): ReLU(inplace=True)
      (aa): Identity()
      (conv3): Conv2d(192, 972, kernel_size=(1, 1), stride=(1, 1), bias=False)
      (bn3): BatchNorm2d(972, eps=1e-05, momentum=0.1, affine=True, track_running_stats=True)
      (act3): ReLU(inplace=True)
    )
    (10): Bottleneck(
      (conv1): Conv2d(972, 192, kernel_size=(1, 1), stride=(1, 1), bias=False)
      (bn1): BatchNorm2d(192, eps=1e-05, momentum=0.1, affine=True, track_running_stats=True)
      (act1): ReLU(inplace=True)
      (conv2): Conv2d(192, 184, kernel_size=(3, 3), stride=(1, 1), padding=(1, 1), bias=False)
      (bn2): BatchNorm2d(184, eps=1e-05, momentum=0.1, affine=True, track_running_stats=True)
      (drop_block): Identity()
      (act2): ReLU(inplace=True)
      (aa): Identity()
      (conv3): Conv2d(184, 972, kernel_size=(1, 1), stride=(1, 1), bias=False)
      (bn3): BatchNorm2d(972, eps=1e-05, momentum=0.1, affine=True, track_running_stats=True)
      (act3): ReLU(inplace=True)
    )
    (11): Bottleneck(
      (conv1): Conv2d(972, 176, kernel_size=(1, 1), stride=(1, 1), bias=False)
      (bn1): BatchNorm2d(176, eps=1e-05, momentum=0.1, affine=True, track_running_stats=True)
      (act1): ReLU(inplace=True)
      (conv2): Conv2d(176, 176, kernel_size=(3, 3), stride=(1, 1), padding=(1, 1), bias=False)
      (bn2): BatchNorm2d(176, eps=1e-05, momentum=0.1, affine=True, track_running_stats=True)
      (drop_block): Identity()
      (act2): ReLU(inplace=True)
      (aa): Identity()
      (conv3): Conv2d(176, 972, kernel_size=(1, 1), stride=(1, 1), bias=False)
      (bn3): BatchNorm2d(972, eps=1e-05, momentum=0.1, affine=True, track_running_stats=True)
      (act3): ReLU(inplace=True)
    )
    (12): Bottleneck(
      (conv1): Conv2d(972, 124, kernel_size=(1, 1), stride=(1, 1), bias=False)
      (bn1): BatchNorm2d(124, eps=1e-05, momentum=0.1, affine=True, track_running_stats=True)
      (act1): ReLU(inplace=True)
      (conv2): Conv2d(124, 148, kernel_size=(3, 3), stride=(1, 1), padding=(1, 1), bias=False)
      (bn2): BatchNorm2d(148, eps=1e-05, momentum=0.1, affine=True, track_running_stats=True)
      (drop_block): Identity()
      (act2): ReLU(inplace=True)
      (aa): Identity()
      (conv3): Conv2d(148, 972, kernel_size=(1, 1), stride=(1, 1), bias=False)
      (bn3): BatchNorm2d(972, eps=1e-05, momentum=0.1, affine=True, track_running_stats=True)
      (act3): ReLU(inplace=True)
    )
    (13): Bottleneck(
      (conv1): Conv2d(972, 116, kernel_size=(1, 1), stride=(1, 1), bias=False)
      (bn1): BatchNorm2d(116, eps=1e-05, momentum=0.1, affine=True, track_running_stats=True)
      (act1): ReLU(inplace=True)
      (conv2): Conv2d(116, 164, kernel_size=(3, 3), stride=(1, 1), padding=(1, 1), bias=False)
      (bn2): BatchNorm2d(164, eps=1e-05, momentum=0.1, affine=True, track_running_stats=True)
      (drop_block): Identity()
      (act2): ReLU(inplace=True)
      (aa): Identity()
      (conv3): Conv2d(164, 972, kernel_size=(1, 1), stride=(1, 1), bias=False)
      (bn3): BatchNorm2d(972, eps=1e-05, momentum=0.1, affine=True, track_running_stats=True)
      (act3): ReLU(inplace=True)
    )
    (14): Bottleneck(
      (conv1): Conv2d(972, 140, kernel_size=(1, 1), stride=(1, 1), bias=False)
      (bn1): BatchNorm2d(140, eps=1e-05, momentum=0.1, affine=True, track_running_stats=True)
      (act1): ReLU(inplace=True)
      (conv2): Conv2d(140, 144, kernel_size=(3, 3), stride=(1, 1), padding=(1, 1), bias=False)
      (bn2): BatchNorm2d(144, eps=1e-05, momentum=0.1, affine=True, track_running_stats=True)
      (drop_block): Identity()
      (act2): ReLU(inplace=True)
      (aa): Identity()
      (conv3): Conv2d(144, 972, kernel_size=(1, 1), stride=(1, 1), bias=False)
      (bn3): BatchNorm2d(972, eps=1e-05, momentum=0.1, affine=True, track_running_stats=True)
      (act3): ReLU(inplace=True)
    )
    (15): Bottleneck(
      (conv1): Conv2d(972, 132, kernel_size=(1, 1), stride=(1, 1), bias=False)
      (bn1): BatchNorm2d(132, eps=1e-05, momentum=0.1, affine=True, track_running_stats=True)
      (act1): ReLU(inplace=True)
      (conv2): Conv2d(132, 136, kernel_size=(3, 3), stride=(1, 1), padding=(1, 1), bias=False)
      (bn2): BatchNorm2d(136, eps=1e-05, momentum=0.1, affine=True, track_running_stats=True)
      (drop_block): Identity()
      (act2): ReLU(inplace=True)
      (aa): Identity()
      (conv3): Conv2d(136, 972, kernel_size=(1, 1), stride=(1, 1), bias=False)
      (bn3): BatchNorm2d(972, eps=1e-05, momentum=0.1, affine=True, track_running_stats=True)
      (act3): ReLU(inplace=True)
    )
    (16): Bottleneck(
      (conv1): Conv2d(972, 232, kernel_size=(1, 1), stride=(1, 1), bias=False)
      (bn1): BatchNorm2d(232, eps=1e-05, momentum=0.1, affine=True, track_running_stats=True)
      (act1): ReLU(inplace=True)
      (conv2): Conv2d(232, 248, kernel_size=(3, 3), stride=(1, 1), padding=(1, 1), bias=False)
      (bn2): BatchNorm2d(248, eps=1e-05, momentum=0.1, affine=True, track_running_stats=True)
      (drop_block): Identity()
      (act2): ReLU(inplace=True)
      (aa): Identity()
      (conv3): Conv2d(248, 972, kernel_size=(1, 1), stride=(1, 1), bias=False)
      (bn3): BatchNorm2d(972, eps=1e-05, momentum=0.1, affine=True, track_running_stats=True)
      (act3): ReLU(inplace=True)
    )
    (17): Bottleneck(
      (conv1): Conv2d(972, 244, kernel_size=(1, 1), stride=(1, 1), bias=False)
      (bn1): BatchNorm2d(244, eps=1e-05, momentum=0.1, affine=True, track_running_stats=True)
      (act1): ReLU(inplace=True)
      (conv2): Conv2d(244, 252, kernel_size=(3, 3), stride=(1, 1), padding=(1, 1), bias=False)
      (bn2): BatchNorm2d(252, eps=1e-05, momentum=0.1, affine=True, track_running_stats=True)
      (drop_block): Identity()
      (act2): ReLU(inplace=True)
      (aa): Identity()
      (conv3): Conv2d(252, 972, kernel_size=(1, 1), stride=(1, 1), bias=False)
      (bn3): BatchNorm2d(972, eps=1e-05, momentum=0.1, affine=True, track_running_stats=True)
      (act3): ReLU(inplace=True)
    )
    (18): Bottleneck(
      (conv1): Conv2d(972, 224, kernel_size=(1, 1), stride=(1, 1), bias=False)
      (bn1): BatchNorm2d(224, eps=1e-05, momentum=0.1, affine=True, track_running_stats=True)
      (act1): ReLU(inplace=True)
      (conv2): Conv2d(224, 244, kernel_size=(3, 3), stride=(1, 1), padding=(1, 1), bias=False)
      (bn2): BatchNorm2d(244, eps=1e-05, momentum=0.1, affine=True, track_running_stats=True)
      (drop_block): Identity()
      (act2): ReLU(inplace=True)
      (aa): Identity()
      (conv3): Conv2d(244, 972, kernel_size=(1, 1), stride=(1, 1), bias=False)
      (bn3): BatchNorm2d(972, eps=1e-05, momentum=0.1, affine=True, track_running_stats=True)
      (act3): ReLU(inplace=True)
    )
    (19): Bottleneck(
      (conv1): Conv2d(972, 252, kernel_size=(1, 1), stride=(1, 1), bias=False)
      (bn1): BatchNorm2d(252, eps=1e-05, momentum=0.1, affine=True, track_running_stats=True)
      (act1): ReLU(inplace=True)
      (conv2): Conv2d(252, 252, kernel_size=(3, 3), stride=(1, 1), padding=(1, 1), bias=False)
      (bn2): BatchNorm2d(252, eps=1e-05, momentum=0.1, affine=True, track_running_stats=True)
      (drop_block): Identity()
      (act2): ReLU(inplace=True)
      (aa): Identity()
      (conv3): Conv2d(252, 972, kernel_size=(1, 1), stride=(1, 1), bias=False)
      (bn3): BatchNorm2d(972, eps=1e-05, momentum=0.1, affine=True, track_running_stats=True)
      (act3): ReLU(inplace=True)
    )
    (20): Bottleneck(
      (conv1): Conv2d(972, 236, kernel_size=(1, 1), stride=(1, 1), bias=False)
      (bn1): BatchNorm2d(236, eps=1e-05, momentum=0.1, affine=True, track_running_stats=True)
      (act1): ReLU(inplace=True)
      (conv2): Conv2d(236, 252, kernel_size=(3, 3), stride=(1, 1), padding=(1, 1), bias=False)
      (bn2): BatchNorm2d(252, eps=1e-05, momentum=0.1, affine=True, track_running_stats=True)
      (drop_block): Identity()
      (act2): ReLU(inplace=True)
      (aa): Identity()
      (conv3): Conv2d(252, 972, kernel_size=(1, 1), stride=(1, 1), bias=False)
      (bn3): BatchNorm2d(972, eps=1e-05, momentum=0.1, affine=True, track_running_stats=True)
      (act3): ReLU(inplace=True)
    )
    (21): Bottleneck(
      (conv1): Conv2d(972, 192, kernel_size=(1, 1), stride=(1, 1), bias=False)
      (bn1): BatchNorm2d(192, eps=1e-05, momentum=0.1, affine=True, track_running_stats=True)
      (act1): ReLU(inplace=True)
      (conv2): Conv2d(192, 188, kernel_size=(3, 3), stride=(1, 1), padding=(1, 1), bias=False)
      (bn2): BatchNorm2d(188, eps=1e-05, momentum=0.1, affine=True, track_running_stats=True)
      (drop_block): Identity()
      (act2): ReLU(inplace=True)
      (aa): Identity()
      (conv3): Conv2d(188, 972, kernel_size=(1, 1), stride=(1, 1), bias=False)
      (bn3): BatchNorm2d(972, eps=1e-05, momentum=0.1, affine=True, track_running_stats=True)
      (act3): ReLU(inplace=True)
    )
    (22): Bottleneck(
      (conv1): Conv2d(972, 108, kernel_size=(1, 1), stride=(1, 1), bias=False)
      (bn1): BatchNorm2d(108, eps=1e-05, momentum=0.1, affine=True, track_running_stats=True)
      (act1): ReLU(inplace=True)
      (conv2): Conv2d(108, 120, kernel_size=(3, 3), stride=(1, 1), padding=(1, 1), bias=False)
      (bn2): BatchNorm2d(120, eps=1e-05, momentum=0.1, affine=True, track_running_stats=True)
      (drop_block): Identity()
      (act2): ReLU(inplace=True)
      (aa): Identity()
      (conv3): Conv2d(120, 972, kernel_size=(1, 1), stride=(1, 1), bias=False)
      (bn3): BatchNorm2d(972, eps=1e-05, momentum=0.1, affine=True, track_running_stats=True)
      (act3): ReLU(inplace=True)
    )
  )
  (layer4): Sequential(
    (0): Bottleneck(
      (conv1): Conv2d(972, 512, kernel_size=(1, 1), stride=(1, 1), bias=False)
      (bn1): BatchNorm2d(512, eps=1e-05, momentum=0.1, affine=True, track_running_stats=True)
      (act1): ReLU(inplace=True)
      (conv2): Conv2d(512, 508, kernel_size=(3, 3), stride=(2, 2), padding=(1, 1), bias=False)
      (bn2): BatchNorm2d(508, eps=1e-05, momentum=0.1, affine=True, track_running_stats=True)
      (drop_block): Identity()
      (act2): ReLU(inplace=True)
      (aa): Identity()
      (conv3): Conv2d(508, 2048, kernel_size=(1, 1), stride=(1, 1), bias=False)
      (bn3): BatchNorm2d(2048, eps=1e-05, momentum=0.1, affine=True, track_running_stats=True)
      (act3): ReLU(inplace=True)
      (downsample): Sequential(
        (0): Conv2d(972, 2048, kernel_size=(1, 1), stride=(2, 2), bias=False)
        (1): BatchNorm2d(2048, eps=1e-05, momentum=0.1, affine=True, track_running_stats=True)
      )
    )
    (1): Bottleneck(
      (conv1): Conv2d(2048, 512, kernel_size=(1, 1), stride=(1, 1), bias=False)
      (bn1): BatchNorm2d(512, eps=1e-05, momentum=0.1, affine=True, track_running_stats=True)
      (act1): ReLU(inplace=True)
      (conv2): Conv2d(512, 472, kernel_size=(3, 3), stride=(1, 1), padding=(1, 1), bias=False)
      (bn2): BatchNorm2d(472, eps=1e-05, momentum=0.1, affine=True, track_running_stats=True)
      (drop_block): Identity()
      (act2): ReLU(inplace=True)
      (aa): Identity()
      (conv3): Conv2d(472, 2048, kernel_size=(1, 1), stride=(1, 1), bias=False)
      (bn3): BatchNorm2d(2048, eps=1e-05, momentum=0.1, affine=True, track_running_stats=True)
      (act3): ReLU(inplace=True)
    )
    (2): Bottleneck(
      (conv1): Conv2d(2048, 220, kernel_size=(1, 1), stride=(1, 1), bias=False)
      (bn1): BatchNorm2d(220, eps=1e-05, momentum=0.1, affine=True, track_running_stats=True)
      (act1): ReLU(inplace=True)
      (conv2): Conv2d(220, 432, kernel_size=(3, 3), stride=(1, 1), padding=(1, 1), bias=False)
      (bn2): BatchNorm2d(432, eps=1e-05, momentum=0.1, affine=True, track_running_stats=True)
      (drop_block): Identity()
      (act2): ReLU(inplace=True)
      (aa): Identity()
      (conv3): Conv2d(432, 2048, kernel_size=(1, 1), stride=(1, 1), bias=False)
      (bn3): BatchNorm2d(2048, eps=1e-05, momentum=0.1, affine=True, track_running_stats=True)
      (act3): ReLU(inplace=True)
    )
  )
  (global_pool): SelectAdaptivePool2d(pool_type=avg, flatten=Flatten(start_dim=1, end_dim=-1))
  (fc): Linear(in_features=2048, out_features=1000, bias=True)
)
MACs: 5.5433 G, Params: 32.7423 M
Evaluating results/pruned/ResNet101/final_pruned_resnet101_imagenet_rev1_ratio0.428_full.pt...
Accuracy: 0.1288, Loss: 5.2923
